…
      19          1000        0.859612    2.31353     2.65487         656.377       
      21          1100        0.822165    2.19253     2.4923          717.422       
      23          1200        0.786432    2.09148     2.34582         777.923       
      25          1300        0.768305    2.0328      2.27833         838.22        
      27          1400        0.75121     1.98469     2.23873         898.917       
      29          1500        0.73268     1.94088     2.17974         959.597   

[========== our am:
E2E(
  (encoder): Encoder(
    (embed): Conv2dSubsampling(
      (conv): Sequential(
        (0): Conv2d(1, 512, kernel_size=(3, 3), stride=(2, 2))
        (1): ReLU()
        (2): Conv2d(512, 512, kernel_size=(3, 3), stride=(2, 2))
        (3): ReLU()
      )
      (out): Sequential(
        (0): Linear(in_features=10240, out_features=512, bias=True)
        (1): PositionalEncoding(
          (dropout): Dropout(p=0.1)
        )
      )
    )
    (encoders): MultiSequential(
      (0): EncoderLayer(
        (self_attn): MultiHeadedAttention(
          (linear_q): Linear(in_features=512, out_features=512, bias=True)
          (linear_k): Linear(in_features=512, out_features=512, bias=True)
          (linear_v): Linear(in_features=512, out_features=512, bias=True)
          (linear_out): Linear(in_features=512, out_features=512, bias=True)
          (dropout): Dropout(p=0.0)
        )
        (feed_forward): PositionwiseFeedForward(
          (w_1): Linear(in_features=512, out_features=2048, bias=True)
          (w_2): Linear(in_features=2048, out_features=512, bias=True)
          (dropout): Dropout(p=0.1)
        )
        (norm1): LayerNorm(torch.Size([512]), eps=1e-12, elementwise_affine=True)
        (norm2): LayerNorm(torch.Size([512]), eps=1e-12, elementwise_affine=True)
        (dropout): Dropout(p=0.1)
      )
      (1): EncoderLayer(
        (self_attn): MultiHeadedAttention(
          (linear_q): Linear(in_features=512, out_features=512, bias=True)
          (linear_k): Linear(in_features=512, out_features=512, bias=True)
          (linear_v): Linear(in_features=512, out_features=512, bias=True)
          (linear_out): Linear(in_features=512, out_features=512, bias=True)
          (dropout): Dropout(p=0.0)
        )
        (feed_forward): PositionwiseFeedForward(
          (w_1): Linear(in_features=512, out_features=2048, bias=True)
          (w_2): Linear(in_features=2048, out_features=512, bias=True)
          (dropout): Dropout(p=0.1)
        )
        (norm1): LayerNorm(torch.Size([512]), eps=1e-12, elementwise_affine=True)
        (norm2): LayerNorm(torch.Size([512]), eps=1e-12, elementwise_affine=True)
        (dropout): Dropout(p=0.1)
      )
      (2): EncoderLayer(
        (self_attn): MultiHeadedAttention(
          (linear_q): Linear(in_features=512, out_features=512, bias=True)
          (linear_k): Linear(in_features=512, out_features=512, bias=True)
          (linear_v): Linear(in_features=512, out_features=512, bias=True)
          (linear_out): Linear(in_features=512, out_features=512, bias=True)
          (dropout): Dropout(p=0.0)
        )
        (feed_forward): PositionwiseFeedForward(
          (w_1): Linear(in_features=512, out_features=2048, bias=True)
          (w_2): Linear(in_features=2048, out_features=512, bias=True)
          (dropout): Dropout(p=0.1)
        )
        (norm1): LayerNorm(torch.Size([512]), eps=1e-12, elementwise_affine=True)
        (norm2): LayerNorm(torch.Size([512]), eps=1e-12, elementwise_affine=True)
        (dropout): Dropout(p=0.1)
      )
      (3): EncoderLayer(
        (self_attn): MultiHeadedAttention(
          (linear_q): Linear(in_features=512, out_features=512, bias=True)
          (linear_k): Linear(in_features=512, out_features=512, bias=True)
          (linear_v): Linear(in_features=512, out_features=512, bias=True)
          (linear_out): Linear(in_features=512, out_features=512, bias=True)
          (dropout): Dropout(p=0.0)
        )
        (feed_forward): PositionwiseFeedForward(
          (w_1): Linear(in_features=512, out_features=2048, bias=True)
          (w_2): Linear(in_features=2048, out_features=512, bias=True)
          (dropout): Dropout(p=0.1)
        )
        (norm1): LayerNorm(torch.Size([512]), eps=1e-12, elementwise_affine=True)
        (norm2): LayerNorm(torch.Size([512]), eps=1e-12, elementwise_affine=True)
        (dropout): Dropout(p=0.1)
      )
      (4): EncoderLayer(
        (self_attn): MultiHeadedAttention(
          (linear_q): Linear(in_features=512, out_features=512, bias=True)
          (linear_k): Linear(in_features=512, out_features=512, bias=True)
          (linear_v): Linear(in_features=512, out_features=512, bias=True)
          (linear_out): Linear(in_features=512, out_features=512, bias=True)
          (dropout): Dropout(p=0.0)
        )
        (feed_forward): PositionwiseFeedForward(
          (w_1): Linear(in_features=512, out_features=2048, bias=True)
          (w_2): Linear(in_features=2048, out_features=512, bias=True)
          (dropout): Dropout(p=0.1)
        )
        (norm1): LayerNorm(torch.Size([512]), eps=1e-12, elementwise_affine=True)
        (norm2): LayerNorm(torch.Size([512]), eps=1e-12, elementwise_affine=True)
        (dropout): Dropout(p=0.1)
      )
      (5): EncoderLayer(
        (self_attn): MultiHeadedAttention(
          (linear_q): Linear(in_features=512, out_features=512, bias=True)
          (linear_k): Linear(in_features=512, out_features=512, bias=True)
          (linear_v): Linear(in_features=512, out_features=512, bias=True)
          (linear_out): Linear(in_features=512, out_features=512, bias=True)
          (dropout): Dropout(p=0.0)
        )
        (feed_forward): PositionwiseFeedForward(
          (w_1): Linear(in_features=512, out_features=2048, bias=True)
          (w_2): Linear(in_features=2048, out_features=512, bias=True)
          (dropout): Dropout(p=0.1)
        )
        (norm1): LayerNorm(torch.Size([512]), eps=1e-12, elementwise_affine=True)
        (norm2): LayerNorm(torch.Size([512]), eps=1e-12, elementwise_affine=True)
        (dropout): Dropout(p=0.1)
      )
      (6): EncoderLayer(
        (self_attn): MultiHeadedAttention(
          (linear_q): Linear(in_features=512, out_features=512, bias=True)
          (linear_k): Linear(in_features=512, out_features=512, bias=True)
          (linear_v): Linear(in_features=512, out_features=512, bias=True)
          (linear_out): Linear(in_features=512, out_features=512, bias=True)
          (dropout): Dropout(p=0.0)
        )
        (feed_forward): PositionwiseFeedForward(
          (w_1): Linear(in_features=512, out_features=2048, bias=True)
          (w_2): Linear(in_features=2048, out_features=512, bias=True)
          (dropout): Dropout(p=0.1)
        )
        (norm1): LayerNorm(torch.Size([512]), eps=1e-12, elementwise_affine=True)
        (norm2): LayerNorm(torch.Size([512]), eps=1e-12, elementwise_affine=True)
        (dropout): Dropout(p=0.1)
      )
      (7): EncoderLayer(
        (self_attn): MultiHeadedAttention(
          (linear_q): Linear(in_features=512, out_features=512, bias=True)
          (linear_k): Linear(in_features=512, out_features=512, bias=True)
          (linear_v): Linear(in_features=512, out_features=512, bias=True)
          (linear_out): Linear(in_features=512, out_features=512, bias=True)
          (dropout): Dropout(p=0.0)
        )
        (feed_forward): PositionwiseFeedForward(
          (w_1): Linear(in_features=512, out_features=2048, bias=True)
          (w_2): Linear(in_features=2048, out_features=512, bias=True)
          (dropout): Dropout(p=0.1)
        )
        (norm1): LayerNorm(torch.Size([512]), eps=1e-12, elementwise_affine=True)
        (norm2): LayerNorm(torch.Size([512]), eps=1e-12, elementwise_affine=True)
        (dropout): Dropout(p=0.1)
      )
      (8): EncoderLayer(
        (self_attn): MultiHeadedAttention(
          (linear_q): Linear(in_features=512, out_features=512, bias=True)
          (linear_k): Linear(in_features=512, out_features=512, bias=True)
          (linear_v): Linear(in_features=512, out_features=512, bias=True)
          (linear_out): Linear(in_features=512, out_features=512, bias=True)
          (dropout): Dropout(p=0.0)
        )
        (feed_forward): PositionwiseFeedForward(
          (w_1): Linear(in_features=512, out_features=2048, bias=True)
          (w_2): Linear(in_features=2048, out_features=512, bias=True)
          (dropout): Dropout(p=0.1)
        )
        (norm1): LayerNorm(torch.Size([512]), eps=1e-12, elementwise_affine=True)
        (norm2): LayerNorm(torch.Size([512]), eps=1e-12, elementwise_affine=True)
        (dropout): Dropout(p=0.1)
      )
      (9): EncoderLayer(
        (self_attn): MultiHeadedAttention(
          (linear_q): Linear(in_features=512, out_features=512, bias=True)
          (linear_k): Linear(in_features=512, out_features=512, bias=True)
          (linear_v): Linear(in_features=512, out_features=512, bias=True)
          (linear_out): Linear(in_features=512, out_features=512, bias=True)
          (dropout): Dropout(p=0.0)
        )
        (feed_forward): PositionwiseFeedForward(
          (w_1): Linear(in_features=512, out_features=2048, bias=True)
          (w_2): Linear(in_features=2048, out_features=512, bias=True)
          (dropout): Dropout(p=0.1)
        )
        (norm1): LayerNorm(torch.Size([512]), eps=1e-12, elementwise_affine=True)
        (norm2): LayerNorm(torch.Size([512]), eps=1e-12, elementwise_affine=True)
        (dropout): Dropout(p=0.1)
      )
      (10): EncoderLayer(
        (self_attn): MultiHeadedAttention(
          (linear_q): Linear(in_features=512, out_features=512, bias=True)
          (linear_k): Linear(in_features=512, out_features=512, bias=True)
          (linear_v): Linear(in_features=512, out_features=512, bias=True)
          (linear_out): Linear(in_features=512, out_features=512, bias=True)
          (dropout): Dropout(p=0.0)
        )
        (feed_forward): PositionwiseFeedForward(
          (w_1): Linear(in_features=512, out_features=2048, bias=True)
          (w_2): Linear(in_features=2048, out_features=512, bias=True)
          (dropout): Dropout(p=0.1)
        )
        (norm1): LayerNorm(torch.Size([512]), eps=1e-12, elementwise_affine=True)
        (norm2): LayerNorm(torch.Size([512]), eps=1e-12, elementwise_affine=True)
        (dropout): Dropout(p=0.1)
      )
      (11): EncoderLayer(
        (self_attn): MultiHeadedAttention(
          (linear_q): Linear(in_features=512, out_features=512, bias=True)
          (linear_k): Linear(in_features=512, out_features=512, bias=True)
          (linear_v): Linear(in_features=512, out_features=512, bias=True)
          (linear_out): Linear(in_features=512, out_features=512, bias=True)
          (dropout): Dropout(p=0.0)
        )
        (feed_forward): PositionwiseFeedForward(
          (w_1): Linear(in_features=512, out_features=2048, bias=True)
          (w_2): Linear(in_features=2048, out_features=512, bias=True)
          (dropout): Dropout(p=0.1)
        )
        (norm1): LayerNorm(torch.Size([512]), eps=1e-12, elementwise_affine=True)
        (norm2): LayerNorm(torch.Size([512]), eps=1e-12, elementwise_affine=True)
        (dropout): Dropout(p=0.1)
      )
    )
    (after_norm): LayerNorm(torch.Size([512]), eps=1e-12, elementwise_affine=True)
  )
  (decoder): Decoder(
    (embed): Sequential(
      (0): Embedding(5002, 512)
      (1): PositionalEncoding(
        (dropout): Dropout(p=0.1)
      )
    )
    (decoders): MultiSequential(
      (0): DecoderLayer(
        (self_attn): MultiHeadedAttention(
          (linear_q): Linear(in_features=512, out_features=512, bias=True)
          (linear_k): Linear(in_features=512, out_features=512, bias=True)
          (linear_v): Linear(in_features=512, out_features=512, bias=True)
          (linear_out): Linear(in_features=512, out_features=512, bias=True)
          (dropout): Dropout(p=0.0)
        )
        (src_attn): MultiHeadedAttention(
          (linear_q): Linear(in_features=512, out_features=512, bias=True)
          (linear_k): Linear(in_features=512, out_features=512, bias=True)
          (linear_v): Linear(in_features=512, out_features=512, bias=True)
          (linear_out): Linear(in_features=512, out_features=512, bias=True)
          (dropout): Dropout(p=0.0)
        )
        (feed_forward): PositionwiseFeedForward(
          (w_1): Linear(in_features=512, out_features=2048, bias=True)
          (w_2): Linear(in_features=2048, out_features=512, bias=True)
          (dropout): Dropout(p=0.1)
        )
        (norm1): LayerNorm(torch.Size([512]), eps=1e-12, elementwise_affine=True)
        (norm2): LayerNorm(torch.Size([512]), eps=1e-12, elementwise_affine=True)
        (norm3): LayerNorm(torch.Size([512]), eps=1e-12, elementwise_affine=True)
        (dropout): Dropout(p=0.1)
      )
      (1): DecoderLayer(
        (self_attn): MultiHeadedAttention(
          (linear_q): Linear(in_features=512, out_features=512, bias=True)
          (linear_k): Linear(in_features=512, out_features=512, bias=True)
          (linear_v): Linear(in_features=512, out_features=512, bias=True)
          (linear_out): Linear(in_features=512, out_features=512, bias=True)
          (dropout): Dropout(p=0.0)
        )
        (src_attn): MultiHeadedAttention(
          (linear_q): Linear(in_features=512, out_features=512, bias=True)
          (linear_k): Linear(in_features=512, out_features=512, bias=True)
          (linear_v): Linear(in_features=512, out_features=512, bias=True)
          (linear_out): Linear(in_features=512, out_features=512, bias=True)
          (dropout): Dropout(p=0.0)
        )
        (feed_forward): PositionwiseFeedForward(
          (w_1): Linear(in_features=512, out_features=2048, bias=True)
          (w_2): Linear(in_features=2048, out_features=512, bias=True)
          (dropout): Dropout(p=0.1)
        )
        (norm1): LayerNorm(torch.Size([512]), eps=1e-12, elementwise_affine=True)
        (norm2): LayerNorm(torch.Size([512]), eps=1e-12, elementwise_affine=True)
        (norm3): LayerNorm(torch.Size([512]), eps=1e-12, elementwise_affine=True)
        (dropout): Dropout(p=0.1)
      )
      (2): DecoderLayer(
        (self_attn): MultiHeadedAttention(
          (linear_q): Linear(in_features=512, out_features=512, bias=True)
          (linear_k): Linear(in_features=512, out_features=512, bias=True)
          (linear_v): Linear(in_features=512, out_features=512, bias=True)
          (linear_out): Linear(in_features=512, out_features=512, bias=True)
          (dropout): Dropout(p=0.0)
        )
        (src_attn): MultiHeadedAttention(
          (linear_q): Linear(in_features=512, out_features=512, bias=True)
          (linear_k): Linear(in_features=512, out_features=512, bias=True)
          (linear_v): Linear(in_features=512, out_features=512, bias=True)
          (linear_out): Linear(in_features=512, out_features=512, bias=True)
          (dropout): Dropout(p=0.0)
        )
        (feed_forward): PositionwiseFeedForward(
          (w_1): Linear(in_features=512, out_features=2048, bias=True)
          (w_2): Linear(in_features=2048, out_features=512, bias=True)
          (dropout): Dropout(p=0.1)
        )
        (norm1): LayerNorm(torch.Size([512]), eps=1e-12, elementwise_affine=True)
        (norm2): LayerNorm(torch.Size([512]), eps=1e-12, elementwise_affine=True)
        (norm3): LayerNorm(torch.Size([512]), eps=1e-12, elementwise_affine=True)
        (dropout): Dropout(p=0.1)
      )
      (3): DecoderLayer(
        (self_attn): MultiHeadedAttention(
          (linear_q): Linear(in_features=512, out_features=512, bias=True)
          (linear_k): Linear(in_features=512, out_features=512, bias=True)
          (linear_v): Linear(in_features=512, out_features=512, bias=True)
          (linear_out): Linear(in_features=512, out_features=512, bias=True)
          (dropout): Dropout(p=0.0)
        )
        (src_attn): MultiHeadedAttention(
          (linear_q): Linear(in_features=512, out_features=512, bias=True)
          (linear_k): Linear(in_features=512, out_features=512, bias=True)
          (linear_v): Linear(in_features=512, out_features=512, bias=True)
          (linear_out): Linear(in_features=512, out_features=512, bias=True)
          (dropout): Dropout(p=0.0)
        )
        (feed_forward): PositionwiseFeedForward(
          (w_1): Linear(in_features=512, out_features=2048, bias=True)
          (w_2): Linear(in_features=2048, out_features=512, bias=True)
          (dropout): Dropout(p=0.1)
        )
        (norm1): LayerNorm(torch.Size([512]), eps=1e-12, elementwise_affine=True)
        (norm2): LayerNorm(torch.Size([512]), eps=1e-12, elementwise_affine=True)
        (norm3): LayerNorm(torch.Size([512]), eps=1e-12, elementwise_affine=True)
        (dropout): Dropout(p=0.1)
      )
      (4): DecoderLayer(
        (self_attn): MultiHeadedAttention(
          (linear_q): Linear(in_features=512, out_features=512, bias=True)
          (linear_k): Linear(in_features=512, out_features=512, bias=True)
          (linear_v): Linear(in_features=512, out_features=512, bias=True)
          (linear_out): Linear(in_features=512, out_features=512, bias=True)
          (dropout): Dropout(p=0.0)
        )
        (src_attn): MultiHeadedAttention(
          (linear_q): Linear(in_features=512, out_features=512, bias=True)
          (linear_k): Linear(in_features=512, out_features=512, bias=True)
          (linear_v): Linear(in_features=512, out_features=512, bias=True)
          (linear_out): Linear(in_features=512, out_features=512, bias=True)
          (dropout): Dropout(p=0.0)
        )
        (feed_forward): PositionwiseFeedForward(
          (w_1): Linear(in_features=512, out_features=2048, bias=True)
          (w_2): Linear(in_features=2048, out_features=512, bias=True)
          (dropout): Dropout(p=0.1)
        )
        (norm1): LayerNorm(torch.Size([512]), eps=1e-12, elementwise_affine=True)
        (norm2): LayerNorm(torch.Size([512]), eps=1e-12, elementwise_affine=True)
        (norm3): LayerNorm(torch.Size([512]), eps=1e-12, elementwise_affine=True)
        (dropout): Dropout(p=0.1)
      )
      (5): DecoderLayer(
        (self_attn): MultiHeadedAttention(
          (linear_q): Linear(in_features=512, out_features=512, bias=True)
          (linear_k): Linear(in_features=512, out_features=512, bias=True)
          (linear_v): Linear(in_features=512, out_features=512, bias=True)
          (linear_out): Linear(in_features=512, out_features=512, bias=True)
          (dropout): Dropout(p=0.0)
        )
        (src_attn): MultiHeadedAttention(
          (linear_q): Linear(in_features=512, out_features=512, bias=True)
          (linear_k): Linear(in_features=512, out_features=512, bias=True)
          (linear_v): Linear(in_features=512, out_features=512, bias=True)
          (linear_out): Linear(in_features=512, out_features=512, bias=True)
          (dropout): Dropout(p=0.0)
        )
        (feed_forward): PositionwiseFeedForward(
          (w_1): Linear(in_features=512, out_features=2048, bias=True)
          (w_2): Linear(in_features=2048, out_features=512, bias=True)
          (dropout): Dropout(p=0.1)
        )
        (norm1): LayerNorm(torch.Size([512]), eps=1e-12, elementwise_affine=True)
        (norm2): LayerNorm(torch.Size([512]), eps=1e-12, elementwise_affine=True)
        (norm3): LayerNorm(torch.Size([512]), eps=1e-12, elementwise_affine=True)
        (dropout): Dropout(p=0.1)
      )
    )
    (after_norm): LayerNorm(torch.Size([512]), eps=1e-12, elementwise_affine=True)
    (output_layer): Linear(in_features=512, out_features=5002, bias=True)
  )
  (criterion): LabelSmoothingLoss(
    (criterion): KLDivLoss()
  )
  (ctc): CTC(
    (ctc_lo): Linear(in_features=512, out_features=5002, bias=True)
    (ctc_loss): CTCLoss()
  )
)
]==========

[=========am layers' sizes
   415 2020-07-11 17:55:27,133 (recog:50) INFO: torch.Size([512, 1, 3, 3])
    416 2020-07-11 17:55:27,133 (recog:50) INFO: torch.Size([512])
    417 2020-07-11 17:55:27,134 (recog:50) INFO: torch.Size([512, 512, 3, 3])
    418 2020-07-11 17:55:27,134 (recog:50) INFO: torch.Size([512])
…
